…
545,"user":{"displayName":"권혁종","userId":"07484803130759059282"}},"outputId":"752acd5d-9227-4685-a0d0-99d60e9c8f94"},"execution_count":18,"outputs":[{"output_type":"stream","name":"stdout","text":["Model: \"model_7\"\n","_________________________________________________________________\n"," Layer (type)                Output Shape              Param #   \n","=================================================================\n"," input_8 (InputLayer)        [(None, 32)]              0         \n","                                                                 \n"," dense_5 (Dense)             (None, 32768)             1081344   \n","                                                                 \n"," leaky_re_lu_21 (LeakyReLU)  (None, 32768)             0         \n","                                                                 \n"," reshape_3 (Reshape)         (None, 16, 16, 128)       0         \n","                                                                 \n"," conv2d_18 (Conv2D)          (None, 16, 16, 256)       819456    \n","                                                                 \n"," leaky_re_lu_22 (LeakyReLU)  (None, 16, 16, 256)       0         \n","                                                                 \n"," conv2d_transpose_3 (Conv2DT  (None, 32, 32, 256)      1048832   \n"," ranspose)                                                       \n","                                                                 \n"," leaky_re_lu_23 (LeakyReLU)  (None, 32, 32, 256)       0         \n","                                                                 \n"," conv2d_19 (Conv2D)          (None, 32, 32, 256)       1638656   \n","                                                                 \n"," leaky_re_lu_24 (LeakyReLU)  (None, 32, 32, 256)       0         \n","                                                                 \n"," conv2d_20 (Conv2D)          (None, 32, 32, 256)       1638656   \n","                                                                 \n"," leaky_re_lu_25 (LeakyReLU)  (None, 32, 32, 256)       0         \n","                                                                 \n"," conv2d_21 (Conv2D)          (None, 32, 32, 3)         37635     \n","                                                                 \n","=================================================================\n","Total params: 6,264,579\n","Trainable params: 6,264,579\n","Non-trainable params: 0\n","_________________________________________________________________\n"]}]},{"cell_type":"code","source":["discriminator_input = layers.Input(shape=(height, width, c
…
83,"user":{"displayName":"권혁종","userId":"07484803130759059282"}},"outputId":"dda2a75e-57e1-41d3-8f2c-b34c10e38548"},"execution_count":22,"outputs":[{"output_type":"stream","name":"stdout","text":["Model: \"model_10\"\n","_________________________________________________________________\n"," Layer (type)                Output Shape              Param #   \n","=================================================================\n"," input_11 (InputLayer)       [(None, 32, 32, 3)]       0         \n","                                                                 \n"," conv2d_26 (Conv2D)          (None, 30, 30, 128)       3584      \n","                                                                 \n"," leaky_re_lu_30 (LeakyReLU)  (None, 30, 30, 128)       0         \n","                                                                 \n"," conv2d_27 (Conv2D)          (None, 14, 14, 128)       262272    \n","                                                                 \n"," leaky_re_lu_31 (LeakyReLU)  (None, 14, 14, 128)       0         \n","                                                                 \n"," conv2d_28 (Conv2D)          (None, 6, 6, 128)         262272    \n","                                                                 \n"," leaky_re_lu_32 (LeakyReLU)  (None, 6, 6, 128)         0         \n","                                                                 \n"," conv2d_29 (Conv2D)          (None, 2, 2, 128)         262272    \n","                                                                 \n"," leaky_re_lu_33 (LeakyReLU)  (None, 2, 2, 128)         0         \n","                                                                 \n"," flatten_3 (Flatten)         (None, 512)               0         \n","                                                                 \n"," dropout_3 (Dropout)         (None, 512)               0         \n","                                                                 \n"," dense_7 (Dense)             (None, 1)                 513       \n","                                                                 \n","=================================================================\n","Total params: 790,913\n","Trainable params: 790,913\n","Non-trainable params: 0\n","_________________________________________________________________\n"]},{"output_type":"stream","name":"stderr","text":["/usr/local/lib/python3.7/dist-packages/keras
…
